{"name": "Integrator_PINN", "model": "PINN(\n  (layers): Sequential(\n    (layer_0): Linear(in_features=1, out_features=500, bias=True)\n    (activation_0): ReLU()\n    (layer_1): Linear(in_features=500, out_features=500, bias=True)\n    (activation_1): ReLU()\n    (layer_2): Linear(in_features=500, out_features=500, bias=True)\n    (activation_2): ReLU()\n    (layer_3): Linear(in_features=500, out_features=500, bias=True)\n    (activation_3): ReLU()\n    (layer_4): Linear(in_features=500, out_features=500, bias=True)\n    (activation_4): ReLU()\n    (layer_5): Linear(in_features=500, out_features=500, bias=True)\n    (activation_5): ReLU()\n    (layer_6): Linear(in_features=500, out_features=500, bias=True)\n    (activation_6): ReLU()\n    (layer_7): Linear(in_features=500, out_features=500, bias=True)\n    (activation_7): ReLU()\n    (layer_8): Linear(in_features=500, out_features=500, bias=True)\n    (activation_8): ReLU()\n    (layer_9): Linear(in_features=500, out_features=500, bias=True)\n    (activation_9): ReLU()\n    (layer_10): Linear(in_features=500, out_features=2, bias=True)\n  )\n)", "epochs": 100, "batchsize": 1024, "optimizer": "Adam (\nParameter Group 0\n    amsgrad: False\n    betas: (0.9, 0.999)\n    capturable: False\n    differentiable: False\n    eps: 1e-08\n    foreach: None\n    fused: None\n    initial_lr: 0.0001\n    lr: 0.0001\n    maximize: False\n    weight_decay: 0\n)", "scheduler": "{'step_size': 50, 'gamma
…
